model/risk-assess-model.pth (torch, 162400 bytes, 4 tensors)

fc1.weight f4 [64, 622]
00000000: 66ee 86be 65db 0cbd e9b3 a7be e586 f5be
00000010: 71d1 893c 68a5 9db9 3c59 323d 2e31 babc
00000020: d18d 9ebd c9b8 623a b2eb 98bc 2fae fdbc
00000030: 2a42 973d 0195 81bc 8996 34bd c291 aaba
00000040: eefe 0bbe 3132 a13b 15e6 b03d d913 14bd
00000050: 051a 80bd cc36 ff3b 0ce0 68bd 0aa9 46bc
00000060: 7c0b 5ebc f34b 16bd 744f d63b 2db8 a8bc
00000070: f256 383c 74f6 a4bc 0860 6ebd fdce 4ebd
00000080: 7f28 32b8 c1b6 19be e935 3a3c d5f5 d2bc
00000090: 8788 933c d948 9d3c 049c 0c3d a738 65bd
000000a0: 9dff c2bc 1b57 6bbd 6176 74be 29c6 0fbc
000000b0: 55f1 b5bc 773f 70bc 76f8 b6bc a6f1 c9bd
000000c0: 6af7 51bd 6d18 843d ffe4 7cbc dbf4 043d
000000d0: e936 7c3c 1602 6fbd 706d b23d 6def 2d3d
000000e0: 75d6 32bd 1463 7ebd ebd4 ea3a 924a 23bd
000000f0: 27a2 66bd c890 f53c 6ac9 f8bc bb13 10bd
00000100: b070 33bb c9e2 253c 05df 57bd 67e1 43bd
00000110: 15b4 85bd 122b 78bd eb04 803c 0c05 abbd
00000120: 4f98 bdbc c844 61b8 6bb9 93bc 23da 4abd
00000130: ad2c b3bb 3290 d0bb a94a 5dbd e4f4 c53b
00000140: 594b 8a3d 1137 30bd 03db 0fbd 2f33 88bc
00000150: 521d 83bc 21ea 56bd b68d 2bba 61a4 fe3c
00000160: 4485 8fbc 2fd4 6cbd db69 5b3d ddab 3b3d
00000170: 3439 16bd f61d edbd f6a1 8fbc 92e5 a0bc
00000180: d6c7 79bc cbcf 0e3a ed9d 3ebd b867 95bc
00000190: 188b 7ebd b45b 6ebd 60d6 63bd ef1a 9bbc
000001a0: 28d1 6fbd cff7 8ebd 16d6 0cbb 6636 203c
000001b0: edbb 5e3d 41c2 49bc 1fc2 103c 43e6 47bd
000001c0: 7efb b3bb c1db 04bc abe3 19bd 0cd8 3bbc
000001d0: 6547 98bc 4ec4 6ebd 758f 9cbd 6987 783d
000001e0: a7ce 66bb 01ea 853d 0c8a 04bd 6d22 1dbd
000001f0: c8e1 ba3b f3ff 1ebd 607e b03c 49a8 52bd
00000200: afc0 9dbc 65fd 24bd f391 76bc fc8b e5bc
00000210: 73a1 8bbc 831a 1c3d 485f 80bd 7502 913d
00000220: 9581 d23c b519 66bd a5fb d6bc c362 71bb
00000230: 356e 1d3c 0e5a 71bd 8da6 bf3b bc69 123d
00000240: b0c0 163d 8a5d 8fbb 8e72 78bd 4847 05bd
00000250: 2895 72bd 4b0b b1bc dd0f 16bd 35dc 32b9
00000260: 873b 38bd d760 63bc 5b2a 10bd 085c 183d
00000270: aa25 d03a fb1a 23bc c38d 1fbd 7d1e 7b3d
00000280: 4bc9 173a 56df 5ebd e494 e6bc bd11 97bc
00000290: b204 afbb acd8 5fbd e3e2 50bd 05f8 83bd
000002a0: 57d1 ca3d ab5a 51bd ede1 b0bc fad6 27bd
000002b0: 8785 873d 82ae 81bd b711 3f3c c310 243d
000002c0: a75a 783d a186 52bd 5323 4e3d 6547 303c
000002d0: 2227 7fbd 737c 783d 2b90 b63d 9b98 6dbc
000002e0: d2b2 66bc 3561 81bd 1146 6abd c1d1 90bc
000002f0: 8325 5f3d 3f82 19bd 8e1f 0ebd 5c3b 0ebd
00000300: 9f87 2fbd f1cf e9bd 9d37 96bb 11e0 0ebd
00000310: f9cc 013e a920 39bd c150 c9bc 5898 b0bb
00000320: 2562 7ebc 46b7 76bd 07f1 68bb 2f52 0f3c
00000330: 552f d5bc 576c 30bd 0492 6cbd cc5b 5ebc
00000340: 977c 303d 10f7 853d e19f 8dbd 7021 2cbc
00000350: 73a5 79bd f61d 023d 60ab 253d ddc1 3dbd
00000360: 0444 3dbd f3c3 83bd ed06 5bbd b54b 893d
00000370: 93f7 ec3b 6ae2 78bd d947 03be 9d30 0cbd
00000380: 25b0 cbbc 4879 bf3c 1e83 213d e643 8d3d
00000390: c982 58bc 94d0 c6bc 97e2 5dbd ed3e 14bd
000003a0: 9548 46bd 8cc0 07bd 2a76 9ebd c011 6d3d
000003b0: 23b6 243d 8e81 5c3c ead1 c13c 3116 3fbd
000003c0: 58e0 2dbe d7f8 85bb 8120 61bd c895 9ebc
000003d0: 0923 11bd 1c39 7abc 19d3 b2bc c2c7 38bd
000003e0: c3e5 bdbd dd6b b2bd 61a7 f0bb 728a 143c
000003f0: 904e 30bd 3e03 15bc cbef f8bc 71d5 ae3d
-0.2635376 -0.03438892 -0.32754448 -0.4795448 0.016823502 -0.0003006861 0.04354213 -0.022728529
-0.07741893 0.0008648751 -0.018667076 -0.030966846 0.07385667 -0.01581812 -0.044088874 -0.001301341
-0.13671467 0.0049193134 0.08637635 -0.03615174 -0.06254963 0.0077885147 -0.056854293 -0.012125263
-0.013552543 -0.036693525 0.0065402333 -0.020595634 0.011251198 -0.02013705 -0.05819705 -0.05049037
-4.2476222e-05 -0.15011121 0.011365392 -0.025751987 0.018009437 0.019199776 0.034328476 -0.05596223
-0.023803527 -0.057456117 -0.23873283 -0.008775272 -0.022209803 -0.014663569 -0.022335272 -0.09860544
-0.051261343 0.06449971 -0.015435456 0.032460075 0.015393951 -0.0583516 0.0871228 0.042464662
-0.043661553 -0.062106207 0.0017916238 -0.039866038 -0.056306984 0.029976264 -0.03036948 -0.035175066
-0.00273804 0.010124871 -0.052702922 -0.047822382 -0.065284885 -0.06058795 0.015627345 -0.08350572
-0.023143915 -5.3708238e-05 -0.01803275 -0.049524438 -0.0054679723 -0.0063648457 -0.05402628 0.006041156
0.06752653 -0.043021265 -0.035120975 -0.016625969 -0.016005192 -0.052469376 -0.0006544249 0.031084241
-0.0175196 -0.05781954 0.05356775 0.0458182 -0.036675647 -0.1157798 -0.017533284 -0.019640718
-0.0152453985 0.00054478337 -0.04653733 -0.018237934 -0.06214437 -0.058192924 -0.055624366 -0.018933741
-0.058549076 -0.069808595 -0.002148991 0.009778595 0.05437844 -0.01231438 0.008835345 -0.04880358
-0.0054926267 -0.008109034 -0.037570637 -0.011465084 -0.018588731 -0.05829268 -0.0764455 0.060676012
-0.003521839 0.06538773 -0.032358214 -0.03836291 0.0057031848 -0.03881831 0.021544635 -0.05143002
-0.019256918 -0.04028072 -0.015049445 -0.028020851 -0.017044758 0.03811122 -0.062681735 0.07080547
0.025696555 -0.05617686 -0.02624304 -0.0036832548 0.009608795 -0.058923773 0.005848712 0.035745367
0.036804855 -0.0043751644 -0.060656123 -0.032538682 -0.059224278 -0.02161183 -0.036636222 -0.00017057436
-0.044978645 -0.013878069 -0.035196643 0.037197143 0.0015880365 -0.009955163 -0.038953554 0.061308373
0.0005790188 -0.05441221 -0.028147168 -0.018441075 -0.005341136 -0.054649994 -0.050997626 -0.0644379
0.0990321 -0.05111186 -0.021592105 -0.040976502 0.06617265 -0.06332113 0.011661938 0.040055048
0.060633328 -0.051397923 0.050326657 0.010759209 -0.06229318 0.06066556 0.089142166 -0.014501716
-0.01408072 -0.06317369 -0.057195727 -0.017678143 0.054479133 -0.037477728 -0.03469806 -0.03472458
-0.042853948 -0.11416615 -0.0045842663 -0.034881655 0.12675847 -0.045197163 -0.02457464 -0.0053892545
-0.015526329 -0.060233377 -0.0035544054 0.008747621 -0.026023546 -0.04307207 -0.05775644 -0.013571691
0.043087568 0.06541264 -0.0691526 -0.010506019 -0.0609488 0.031766854 0.04044664 -0.04632746
-0.046207443 -0.06433859 -0.0534734 0.06703893 0.0072316616 -0.0607628 -0.12820376 -0.03422605
-0.024864266 0.023373261 0.039431684 0.06897716 -0.013214775 -0.02426938 -0.05417117 -0.036192823
-0.048409063 -0.03314261 -0.07737382 0.057878256 0.04021276 0.013458623 0.023659665 -0.046652023
-0.16980112 -0.004088502 -0.05496264 -0.01935853 -0.035433803 -0.015272405 -0.021829175 -0.04511238
-0.09272339 -0.087119795 -0.007344172 0.009066211 -0.043043673 -0.009095011 -0.03038778 0.085368045

fc1.bias f4 [64]
00000000: 3ffc 643d 54b6 363d e308 833c a0e7 553d
00000010: 889d b63d e7c7 833c bba7 c63c ae33 a73d
00000020: f5cb 083c dad9 373b b3de 773d f518 c33d
00000030: 4383 e43b 0b8f bebb d793 183d 31f5 22bc
00000040: 922a 453d bc17 383d 4fca ae3b 2a74 22bb
00000050: fa82 5d3d ca4b b93c 7519 f63c 2773 60ba
00000060: 0953 bf3c 0db3 023a 8eef c13c 1888 9a3d
00000070: 74d3 cdba 2671 613c 6bf6 8e3d 6b2d 9b3d
00000080: 7cc2 2c3d ca00 5ebc 9021 c83c a13f acbc
00000090: e100 0d3c 1325 473d fa42 353d c7db 013d
000000a0: 7497 e73c 665e bebb e598 373d 8e21 1f3d
000000b0: 756c 413d f0b0 8d3d 33ba 1a3c 9a9e 49bc
000000c0: 880a 63bb ced4 393d 9e29 583d 06c8 483d
000000d0: fa7b 5bbd 708c a03c f69d 263d 2654 833d
000000e0: 369f 223d 0212 963b c559 273d be08 a93d
000000f0: 0980 713d 0352 a13c cb66 673c 9308 ad3c
0.055904623 0.044607475 0.015995448 0.052222848 0.089167655 0.016086532 0.024249902 0.08164154
0.008349408 0.0028053434 0.060515117 0.095262446 0.0069736554 -0.005815392 0.037250366 -0.0099461535
0.0481363 0.04494451 0.0053341757 -0.0024788477 0.054079987 0.022619147 0.030041436 -0.0008562081
0.023355024 0.0004985787 0.023673799 0.07545489 -0.0015703277 0.013759887 0.06980594 0.07577022
0.042177662 -0.013549993 0.024430066 -0.021026434 0.008606167 0.04861934 0.044253327 0.031703737
0.02827046 -0.005809593 0.044823546 0.03885036 0.047222573 0.06918514 0.009443807 -0.01230588
-0.0034643728 0.045368962 0.052774064 0.049018882 -0.05358503 0.019598216 0.040677987 0.064125344
0.039702617 0.0045797834 0.040857095 0.082536206 0.058959994 0.019692427 0.014123629 0.021122253

fc2.weight f4 [3, 64]
00000000: dfde 59bd a2d7 373e 7906 883e c351 5e3e
00000010: 8fb5 68be 5894 333d 0e45 c1be 4125 0f3e
00000020: 72b0 be3e d613 25be 189a 193e 5fe0 88be
00000030: 2d55 95be 05b1 babd 8728 8c3e d5f4 b4be
00000040: ee07 683e 0e7d 88be bd36 503e 0c4b f33e
00000050: de1b efbb 51ee dbbe 9404 f03e af23 a0be
00000060: 66ab c0be 56fc a33e f3b1 03bf 1a2a aebe
00000070: 607b dbbd 1af3 953e 2ae6 5e3e b4c5 9d3e
00000080: 856a 9c3d 47fa 243e 0263 eebe a0b3 383e
00000090: 5f62 6abe 02ac 5b3e 40ae 593e a1af ca3b
000000a0: d855 afbe a676 5e3e 5fa1 9a3e 569c 323e
000000b0: da1e 5c3e 8288 b93e ced4 02be 7522 c6be
000000c0: 9a83 d2bd 57ee f7bd 88b2 40be 4c2b 843e
000000d0: 3ac5 cabe 8c64 ec3d 14ed ef3e aa15 0e3e
000000e0: db96 183e 9497 813e 1dc3 933e dc4d 093d
000000f0: d040 dcbe 1a18 3b3e 7d35 b5be d50a ca3e
00000100: 1a46 8b3e f3f0 1a3e 81f1 3c3e 99cb 183d
00000110: ae98 4e3e 995d 4f3e 907d 713e 87de 133e
00000120: af6f 0bbf b286 113e c9ec 9b3e 4bf7 2c3e
00000130: e0f5 183e 4a86 483e 8cba 923c 0592 0b3e
00000140: e1aa 30bf f4e8 02be c015 cabe 3745 17bf
00000150: 2610 87be 36a8 913e 7fff c8be 0a85 123e
00000160: 3bbc 9f3e 52f3 9abe b420 833e 6f70 2c3e
00000170: 4574 9fbe 1a5c fbbe 6062 eabe 4402 1dbf
00000180: 6358 543e f510 293c f46f 09be 75d1 bebe
00000190: d53a 693e 291c 0d3e 46ce 073e 2090 a83e
000001a0: a6a1 27be bf1f 803d 56d1 4dbe e606 403e
000001b0: fee5 15bf c0b6 46be 1b3d b3be 1099 8ebd
000001c0: 57c9 22be b5e3 2a3e 36fd 3b3e b6be a0bd
000001d0: 3e32 df3e a9a2 a6be 11da 43be 0571 63bc
000001e0: 6d7a 82be 5be4 06bf f0c8 4abe b882 8c3e
000001f0: f340 973d 6edf 7d3e 2054 893e 1205 89bd
00000200: b71e 09be 5b46 d1be 211f a2be d941 afbe
00000210: f2e3 3a3d 7151 f2be c7cd 12be 800a 9abe
00000220: a4e0 d53d 4987 60be fcfd a5be c192 463e
00000230: 2ae7 453e c1b2 95be bdd2 efbe 228a f13d
00000240: bf90 4a3e 6b08 683e 5d17 8c3e 0927 93be
00000250: 1af5 7a3e 9901 8b3c c9b9 cbbe 1d52 6a3e
00000260: 1f1f 3eba 0b29 f7bd 881b ed3d a88f 4d3e
00000270: 6bde e83e 87c3 333e de3a e63d 14d2 4f3e
00000280: d4d9 17bf 16f1 e3be c3e4 593e 7535 c53e
00000290: 640c 9ebe 1741 bcbe 1c9d 49bf ae6e 18bf
000002a0: ff3c 8c3e ae85 ecbe 6bf9 80bd 8368 afbe
000002b0: cb01 b83e da19 52be 70ff c13e 5bf4 a73e
000002c0: 3d78 763e 795b 5dbe 794b 8a3e 5c9f c2be
000002d0: eab1 12be 2f42 793e cdfd 5bbe e1fa b8be
000002e0: 713b 903e b698 ae3e 75d4 4dbe be69 c1be
000002f0: 538c be3d 919a 02bf 2a16 283e 3d65 05bf
-0.053191062 0.17953351 0.26567438 0.21710877 -0.22725509 0.043842643 -0.37747997 0.13979055
0.37243992 -0.16120848 0.15000188 -0.26733682 -0.29166546 -0.09115795 0.2737467 -0.35343042
0.22659275 -0.2665791 0.20333381 0.47518194 -0.007297023 -0.42955258 0.46878493 -0.31277224
-0.37630767 0.32028455 -0.51443404 -0.34016496 -0.10716891 0.29287034 0.21767488 0.30814898
0.076375045 0.16111098 -0.46559912 0.18037271 -0.22889088 0.21452335 0.21257877 0.0061854874
-0.3424518 0.21724948 0.3020124 0.1744245 0.21496144 0.3623696 -0.12776491 -0.38698164
-0.10279007 -0.121060066 -0.18818104 0.25814283 -0.39603597 0.11542615 0.46860564 0.13875452
0.14901297 0.25310957 0.28859797 0.033521518 -0.43018198 0.18270913 -0.3539237 0.3946139
0.2720192 0.15130977 0.18451501 0.03730354 0.2017543 0.20250548 0.23583055 0.14440356
-0.5446729 0.14211538 0.3045409 0.1689121 0.14937544 0.19582477 0.017911218 0.13629921
-0.6901074 -0.12784177 -0.3946972 -0.5908999 -0.26379508 0.28448647 -0.39257428 0.14308563
0.31198296 -0.30263764 0.25610888 0.16839765 -0.31143394 -0.49093705 -0.4577818 -0.6133158
0.20736842 0.010318984 -0.13421613 -0.37269178 0.22776349 0.13780273 0.13262281 0.3292246
-0.16370258 0.06256055 -0.20099387 0.18752632 -0.58554065 -0.19405651 -0.35007557 -0.06962788
-0.15897118 0.16688426 0.18358311 -0.07848875 0.4359302 -0.32545975 -0.19126154 -0.013881926
-0.25484028 -0.5269219 -0.19803214 0.2744348 0.07385435 0.24792263 0.26821995 -0.0669042
-0.13390623 -0.4087399 -0.31664374 -0.34229925 0.04562754 -0.4732776 -0.1433631 -0.30086136
0.104432374 -0.21926607 -0.32420337 0.1939192 0.19326463 -0.2923794 -0.46840468 0.11793925
0.19781779 0.22659461 0.27361575 -0.2874072 0.24507561 0.016968535 -0.3979018 0.22882886
-0.0007252562 -0.12068375 0.11577517 0.20074332 0.4548219 0.17555057 0.11241697 0.20294982
-0.59316754 -0.4451987 0.21278672 0.38517347 -0.30868828 -0.3676841 -0.78755355 -0.59543884
0.27390286 -0.4619574 -0.06297573 -0.34259424 0.35938868 -0.20517674 0.37890196 0.32803616
0.24069305 -0.21616925 0.27010706 -0.38012207 -0.14325681 0.24341653 -0.21483536 -0.36128905
0.2817035 0.34100884 -0.20100577 -0.37775987 0.093041085 -0.510171 0.16414705 -0.521076

fc2.bias f4 [3]
00000000: fdce 3d3d b44d 92bd 3b8f f3bc
0.046339978 -0.07143727 -0.029731384
