model/risk-assess-model.pth (torch, 162400 bytes, 4 tensors)

fc1.weight f4 [64, 622]
0	0xbd845ae1	-0.06462646
1	0xbc988e01	-0.0186224
2	0xbf1a2101	-0.6020661
3	0xbe0f40ff	-0.13989638
4	0xbbac5164	-0.005258726
5	0xbcb9e567	-0.022692395
6	0x3d33cb0c	0.043894812
7	0x3d211fbb	0.0393369
8	0xbdcc3277	-0.09970563
9	0xbc9b52e0	-0.018960416
10	0xbc1d45e8	-0.0095991865
11	0xbda3be0f	-0.07995235
12	0xbd08a156	-0.033356987
13	0x3d98fccc	0.07470092
14	0xbd947043	-0.07247975
15	0x3d4cb169	0.04997388
16	0x3c1b7291	0.009487764
17	0x3d886577	0.06659978
18	0x3d8f45a4	0.06995705
19	0xbd5199c4	-0.051172033
20	0x3cd724c5	0.02626265
21	0x3ca3e8c0	0.020008445
22	0x3a1f04a2	0.0006066059
23	0xbd2c8476	-0.042118512
24	0xbcf6c645	-0.03012384
25	0xbd34b94c	-0.044122025
26	0xbcbd4632	-0.02310476
27	0xbc8a4a92	-0.016881261
28	0xbd54bb64	-0.051936522
29	0xbd0a8db2	-0.033826537
30	0x3bf28db7	0.0074021476
31	0x3b61485d	0.0034375407
32	0xbcfe6813	-0.031055486
33	0x3d388038	0.045044154
34	0xbd0db388	-0.034595042
35	0xbd2f49c0	-0.042794943
36	0x3d8d45cd	0.06898079
37	0xbd1acf54	-0.03779538
38	0x3d65a7d4	0.056068256
39	0xbd0fc7f4	-0.0351028
40	0x3a514256	0.0007982602
41	0x3d86fe8f	0.06591522
42	0x3db585c4	0.088634044
43	0xbe1457fb	-0.14486687
44	0x3d123727	0.03569713
45	0xbd51b572	-0.05119843
46	0x3d047bbc	0.032344565
47	0x3da8f046	0.082489535
48	0x3d4a23ce	0.049350552
49	0x3d20a2c0	0.03921771
50	0xbcc4c19a	-0.024018098
51	0x3be402d5	0.0069583454
52	0xbd4e2f40	-0.05033803
53	0xbd22e77c	-0.039771542
54	0x3e2c882f	0.16848825
55	0x3d2f9ef7	0.04287621
56	0xbd57f216	-0.052721106
57	0xbd0e233a	-0.034701563
58	0xbd216bb2	-0.039409347
59	0x3cb40cf1	0.021978827
60	0xbc02daf0	-0.007986769
61	0xbd28e8cc	-0.041237637
62	0x3d173307	0.036913898
63	0xbc80971a	-0.01569705
64	0xbcfc2837	-0.030780895
65	0x3d736033	0.059417915
66	0xbc3549dd	-0.011064974
67	0x3d62beaf	0.05535763
68	0xbd4468af	-0.047951397
69	0x3cf70bff	0.030157087
70	0x3c7810e8	0.0151407495
71	0xbe289b22	-0.16465428
72	0x3c9305d6	0.017947119
73	0xbdcf37cb	-0.101180635
74	0xbd566c30	-0.05234927
75	0x3d11e2c1	0.03561664
76	0xbcb8dd1f	-0.022566376
77	0xbc2f325f	-0.010693162
78	0x3d4fad94	0.050702646
79	0xbd072a82	-0.032999523
80	0xbd955e46	-0.07293372
81	0xbb3e0861	-0.0028996693
82	0x3d4c0eda	0.04981885
83	0xbd22dda4	-0.039762154
84	0xbc0a3b3c	-0.008436974
85	0x3d06abca	0.032878675
86	0xbc86f153	-0.016472494
87	0xbc41cc77	-0.011828533
88	0xbc47ecd1	-0.0122024575
89	0xbc74bada	-0.014937127
90	0x3d36d3d0	0.044635594
91	0x3cff6114	0.03117422
92	0xbd875910	-0.06608784
93	0xbd57be79	-0.052671883
94	0xbd4134aa	-0.047169365
95	0x3c8d59eb	0.01725479
96	0xbd54bac8	-0.05193594
97	0xbccaba4a	-0.024747033
98	0xbcf54eab	-0.029944738
99	0xbc8bef4c	-0.01708188
100	0x3c8f392c	0.017483316
101	0xbd4d675c	-0.0501474
102	0xbd350c78	-0.044201344
103	0xba019cd0	-0.00049443264
104	0xbd4d839c	-0.05017434
105	0xbd650217	-0.055910196
106	0x3ca5134e	0.020150807
107	0xbd4318a2	-0.047630914
108	0x3cebc9ac	0.028782688
109	0x3d611bf8	0.054958314
110	0x3d8bf23b	0.06833311
111	0xbaecc8d7	-0.0018065226
112	0x3c0c984c	0.008581232
113	0xbd575462	-0.052570708
114	0x3d5c64ed	0.053807188
115	0xbc46b09e	-0.01212707
116	0x3cad5252	0.021157417
117	0xbd504d76	-0.050855123
118	0x3d23d6c5	0.039999742
119	0xbd379e92	-0.04482896
120	0xbd327056	-0.043564163
121	0x3d67b74a	0.056571282
122	0x3d158987	0.03650811
123	0xbd2c0e5e	-0.04200589
124	0x3d49070c	0.049078986
125	0x3c076784	0.008264426
126	0x3cc81d8f	0.024428157
127	0xbd55db5c	-0.05221115
128	0x3d0fdeee	0.03512471
129	0xbd4583b8	-0.04822132
130	0x3cc47e49	0.023985999
131	0xbd288232	-0.04113979
132	0xbca61244	-0.020272382
133	0x3c0d98f0	0.00864242
134	0x3d270754	0.040778473
135	0xbdc8582f	-0.09782445
136	0xbd2784f0	-0.040898263
137	0xbd13a24a	-0.036043443
138	0x3d2160fd	0.039399136
139	0xbc8b358f	-0.016993312
140	0x3cef08b3	0.029178953
141	0x3d0798e4	0.033104792
142	0xbdb698ce	-0.08915864
143	0x3d7108f9	0.058846448
144	0x3d9c19b0	0.07622087
145	0xbd475266	-0.048662566
146	0x3d452232	0.048128314
147	0xbce07726	-0.027400564
148	0xbc9abf98	-0.018890187
149	0xbcd6e6be	-0.026233073
150	0xbcacab57	-0.021077795
151	0xbcd23a8a	-0.02566268
152	0xbcb8258f	-0.022478847
153	0xbced34e7	-0.02895589
154	0xbc94ab97	-0.018148227
155	0xbcfba7ab	-0.030719599
156	0xbd07bc49	-0.033138547
157	0xbd2d9b6c	-0.04238455
158	0x3d9f20a8	0.077699006
159	0x3da2e8c0	0.0795455
160	0xbc9a70fe	-0.018852707
161	0xbd30f296	-0.043200098
162	0x3cc2a3e0	0.023759782
163	0xbd15643c	-0.036472544
164	0x3d5f98f9	0.054589245
165	0xbd200328	-0.03906551
166	0xbaaf6a1f	-0.0013383067
167	0xbc52fb6d	-0.012877327
168	0xbcf4e67b	-0.029895058
169	0xbd51ad6c	-0.05119078
170	0x3d5c00a0	0.053711534
171	0xbd02a3cb	-0.031894486
172	0xbc949ab7	-0.01814018
173	0xbd25c873	-0.040474366
174	0x3c16ec43	0.009211603
175	0xbda5a9c3	-0.0808902
176	0xbd500016	-0.050781332
177	0xbce8389b	-0.028347304
178	0xbd526d96	-0.05137404
179	0xbd30c4a0	-0.043156266
180	0xbd556610	-0.052099288
181	0xbd3293ca	-0.043597974
182	0x3d930d0f	0.07180225
183	0x3d9c783c	0.076401204
184	0xbc6c412c	-0.014419835
185	0x3d3edf9d	0.046599973
186	0x3d6bb913	0.057549547
187	0xbd467cf2	-0.048459
188	0x3d02c9dd	0.031930793
189	0x3ce953ad	0.028482283
190	0xbd33f050	-0.04393035
191	0x3d3a86f3	0.045538854
192	0xbd03a780	-0.032142162
193	0x3c872199	0.016495513
194	0x3d0cf60d	0.03441434
195	0xba9e5880	-0.0012080818
196	0xbea5d009	-0.3238528
197	0x3d5575e7	0.052114394
198	0xbd514a7b	-0.05109642
199	0xbd4e423c	-0.050356135
200	0xbd39c882	-0.045357235
201	0x3d816da8	0.063197434
202	0xbd0ab441	-0.03386331
203	0xbd0fba26	-0.035089634
204	0xbd11cd22	-0.03559602
205	0xbcd10228	-0.025513723
206	0x3d3bc1dd	0.04583918
207	0xbcebb4be	-0.028772708
208	0xbd577e84	-0.05261089
209	0x3d78dcdd	0.060757507
210	0xbc9fe2c4	-0.01951731
211	0xbbeeb898	-0.007285189
212	0x3c554a2b	0.013018171
213	0xbd4a2e50	-0.049360573
214	0x3cfb5088	0.030678049
215	0xbd2239da	-0.039605953
216	0x3da5c649	0.080944605
217	0xbcdc448c	-0.026888154
218	0xbd43c082	-0.04779101
219	0xbd088297	-0.033327665
220	0xbd4e52da	-0.050371982
221	0x3d848e2a	0.06472428
222	0xbd04f299	-0.03245792
223	0x3d71ea37	0.059061255
224	0x3bac746a	0.005262901
225	0x3d206d5a	0.039166786
226	0xbccff274	-0.025384165
227	0xbce7ecd3	-0.028311169
228	0xbd2fd2a4	-0.042925492
229	0x3d80ad58	0.06283063
230	0xbd4d0f9d	-0.050063718
231	0xbd586ad6	-0.05283626
232	0xbbc21c9a	-0.0059238197
233	0xbcf6270a	-0.030047912
234	0xbca33141	-0.019920947
235	0x3d7b0c22	0.061290868
236	0xbc6860d5	-0.014183243
237	0xbcc80c6d	-0.024419988
238	0xbd2ec2fb	-0.042666417
239	0x3d3f97d0	0.04677564
240	0x3dcc307a	0.09970184
241	0xbd2fca74	-0.042917684
242	0xbd084814	-0.033271864
243	0x3d60eeef	0.054915365
244	0xbb263301	-0.002535999
245	0xbcd73942	-0.02627242
246	0xbca2c9de	-0.019871648
247	0xbcb1f9f5	-0.021725634
248	0xbcb7eb93	-0.022451198
249	0xbead1088	-0.33801675
250	0x3cde0cb8	0.027105674
251	0x3cc87ac6	0.024472605
252	0x3c95d6d6	0.018290918
253	0x3d3ce495	0.04611643
254	0xbca213d2	-0.019784842
255	0x3d351471	0.044208948

fc1.bias f4 [64]
0	0x3d211921	0.039330605
1	0x3d589dfd	0.052885044
2	0x3d9845cb	0.07435187
3	0x3bc354f1	0.0059610535
4	0x3db0420b	0.08606347
5	0x3c0f5ece	0.008750631
6	0x3d47c9a5	0.048776288
7	0x3cbdbbec	0.023160897
8	0x3d10a97a	0.035317875
9	0x3cbc282f	0.02296838
10	0x3d79edfa	0.061017968
11	0x399f70fc	0.00030411023
12	0x3d1df951	0.038567845
13	0x3be4e6b1	0.0069855084
14	0x3c6b76c1	0.014371575
15	0x3d6d36d8	0.05791363
16	0x3d796929	0.060891304
17	0x3cf6f68e	0.030146863
18	0xbc137dbd	-0.009002146
19	0x3bf89797	0.0075864303
20	0x3cca8d1a	0.024725486
21	0x3d9dc924	0.0770438
22	0xbbdf460a	-0.006813769
23	0x3d146c7d	0.036236275
24	0x3d92624b	0.07147654
25	0x3d663b18	0.0562087
26	0x3cd826bd	0.02638566
27	0x3d40d922	0.047082074
28	0x3c7b61c0	0.01534313
29	0x3d498772	0.049201436
30	0x3d346afa	0.044047333
31	0x3c0c91c4	0.008579675
32	0x3d9bed24	0.0761359
33	0xbc456cc3	-0.012049857
34	0x3d0aeeef	0.03391927
35	0x3db4f370	0.088354945
36	0x3da0c313	0.078497075
37	0x3d5ee59e	0.0544182
38	0x3c5ad09a	0.013355399
39	0xbc440b1d	-0.01196554
40	0x3d90eec1	0.07076789
41	0xbc7d1d43	-0.015448871
42	0x3d36682f	0.04453295
43	0x3ccdc44f	0.025118021
44	0x3cf0f449	0.02941336
45	0x3d851c50	0.06499541
46	0xbb2d733d	-0.0026466392
47	0x3d3644e2	0.044499286
48	0x3d171c84	0.03689243
49	0x3cedb8b4	0.029018737
50	0x3cf66672	0.030078147
51	0x3d52cbc6	0.051463865
52	0x3dabc00e	0.08386241
53	0x3ca82bde	0.02052873
54	0x3c3975a8	0.011319555
55	0x3da5f2e9	0.08102972
56	0x3d7632ce	0.060107045
57	0x3ca6db88	0.020368353
58	0x3d549326	0.051898144
59	0x3d50ae6f	0.050947603
60	0xbcccd66f	-0.025004594
61	0x3ca23171	0.019798966
62	0x3d44b3ca	0.048023023
63	0x3bf92f43	0.007604511

fc2.weight f4 [3, 64]
0	0x3e248abf	0.16068552
1	0xbd956309	-0.0729428
2	0x3d902886	0.07038979
3	0x3ee7257a	0.4514578
4	0xbee31f78	-0.44359946
5	0xbe88c5c4	-0.26713383
6	0x3e39797c	0.18112749
7	0xbe15bdee	-0.14623234
8	0x3d4cbaea	0.049982943
9	0x3e9b3060	0.30310345
10	0xbefc35fd	-0.4925994
11	0x3e368bdf	0.17826794
12	0xbde2fa21	-0.110828646
13	0x3ebbb233	0.36659393
14	0xbec920ee	-0.39282936
15	0x3e1577ac	0.14596432
16	0x3e509418	0.20368993
17	0x3e0d59d2	0.13803795
18	0x3eaf1fa3	0.34203824
19	0x3e3b7c5a	0.18309155
20	0xbe92a455	-0.28641
21	0x3e048897	0.1294273
22	0xbaf73bc8	-0.0018862421
23	0x3ce760cc	0.028244399
24	0x3d0c2219	0.034212206
25	0x3e09f5cc	0.1347267
26	0x3eef4cb8	0.4673822
27	0x3da02fa9	0.078215905
28	0x3e33dfe2	0.17565873
29	0x3e5c012a	0.21484819
30	0x3e2935a7	0.16524373
31	0x3e5cc60b	0.21559922
32	0x3edfb821	0.43695167
33	0x3ef06b47	0.46956846
34	0xbe9efb46	-0.3105108
35	0xbed3d193	-0.4137083
36	0xbec53e5a	-0.38524133
37	0xbee247c3	-0.44195375
38	0xbe9d4e68	-0.30723882
39	0x3e2d4c24	0.16923577
40	0x3e05bb48	0.13059723
41	0xbd110bde	-0.035411708
42	0xbeaa4713	-0.3325735
43	0x3ec45c85	0.38351837
44	0xbe86d397	-0.26333305
45	0x3e873177	0.26404926
46	0x3d82c1a9	0.06384594
47	0x3cf431f8	0.029808983
48	0x3de6bdd7	0.11266678
49	0x3ebdc759	0.37066153
50	0x3d90c5d9	0.070689864
51	0xbe5f5de5	-0.21813162
52	0xbed765ce	-0.42069858
53	0x3ee955b1	0.4557319
54	0x3ecd905a	0.40149194
55	0xbec34561	-0.3813887
56	0xbead296c	-0.33820665
57	0xbdec47c3	-0.11537125
58	0x3daee9ff	0.08540725
59	0x3ec5d668	0.3864014
60	0x3e9f25c0	0.31083488
61	0xbe4bd714	-0.19906265
62	0x3e8ef2c1	0.27919582
63	0x3ec6c22d	0.3882002
64	0x3eb42749	0.35186222
65	0xbe096756	-0.13418326
66	0x3e8ad947	0.27118894
67	0xbe2b5b50	-0.16734052
68	0xbc679781	-0.014135242
69	0x3defb9e1	0.117053755
70	0xbec2d448	-0.38052583
71	0x3e139a1a	0.14414254
72	0x3e4d7db0	0.20067477
73	0xbf0c4ed4	-0.5480778
74	0x3e1fa006	0.15588388
75	0xbe8ab528	-0.27091336
76	0x3eaf524b	0.34242472
77	0xbe9b6444	-0.30349934
78	0x3e525e0e	0.20543692
79	0x3e978c42	0.29599196
80	0xbe9ed847	-0.31024382
81	0xbef4f011	-0.47839406
82	0xbb323f58	-0.00271984
83	0x3ea5dee8	0.32396626
84	0x3e61e361	0.22059394
85	0x3e736aeb	0.23771255
86	0xbeca3847	-0.3949606
87	0x3ea534d9	0.32266882
88	0x3ded9d46	0.11602263
89	0x3e44f8df	0.19235562
90	0xbf37fcdd	-0.71870214
91	0xbe91d5c4	-0.28483403
92	0x3e4660bb	0.19372837
93	0xbe8d2498	-0.2756698
94	0x3e0e0e29	0.13872589
95	0xbd9f4467	-0.077767186
96	0xbe878189	-0.26466015
97	0xbf2412d0	-0.64091206
98	0x3db10303	0.086431526
99	0x3e7c3a8d	0.2463171
100	0x3e1dcddc	0.1541056
101	0xbdc2c479	-0.095101304
102	0x3e6b9650	0.23006558
103	0xbf1b488e	-0.60657585
104	0x3e57bf45	0.21069057
105	0x3e9043a6	0.28176612
106	0x3de2c9de	0.11073659
107	0xbe811ea6	-0.25218695
108	0x3e202862	0.15640405
109	0xbea8bef6	-0.32958192
110	0xbec785a1	-0.38969138
111	0x3e1e134d	0.1543705
112	0xbee54376	-0.4477803
113	0xbe01af81	-0.12664606
114	0xbeee7563	-0.46573934
115	0x3dbfcae8	0.09364873
116	0x3e84ec0c	0.2596134
117	0xbd15c416	-0.036563955
118	0xbe621f19	-0.22082175
119	0x3e2c164c	0.1680538
120	0x3e24a2d1	0.16077735
121	0xbe82a41f	-0.2551584
122	0x3e2eea86	0.17081651
123	0xbe9e3fc8	-0.30908036
124	0xbeccb2ea	-0.3998025
125	0x3df144d8	0.11780709
126	0xbee5b8dc	-0.448676
127	0xbd5fa6f1	-0.054602567
128	0xbf39ac9d	-0.7252901
129	0x3e9df327	0.30849573
130	0xbeaa5ef7	-0.33275577
131	0xbf0694ac	-0.52570605
132	0x3e29aef6	0.16570649
133	0x3d828c65	0.063744344
134	0x3cee7129	0.029106693
135	0xbe314c54	-0.17314273
136	0xbe3dd6f4	-0.1853903
137	0x3e38117b	0.17975418
138	0x3d91139e	0.0708382
139	0x3e8523c6	0.26003855
140	0xbd7f4afd	-0.062327374
141	0x3d39709b	0.045273405
142	0xbda2f999	-0.07957763
143	0xbed96103	-0.42456827
144	0x3e299f44	0.16564661
145	0x3ea95e60	0.33079815
146	0xbea3f12c	-0.32019937
147	0xbf05bb14	-0.52238584
148	0xbdd8efe6	-0.10592632
149	0xbf1607de	-0.58605754
150	0x3e8782fd	0.26467124
151	0xbe80c14d	-0.25147477
152	0xbec78c33	-0.3897415
153	0xbebea4d5	-0.37235132
154	0x3ea63078	0.32458854
155	0x3e9cdef9	0.30638865
156	0xbee3fac2	-0.4452725
157	0x3e639640	0.22225285
158	0xbea73d73	-0.3266407
159	0xbe3d8ec1	-0.18511488
160	0x3be23b0d	0.006904012
161	0x3eaa1125	0.33216205
162	0x3e61e1bc	0.22058767
163	0x3e559e82	0.20861247
164	0x3e56ae25	0.20964868
165	0x3dd3cf87	0.10342317
166	0x3e33f2ed	0.17573138
167	0x3e874e94	0.26427138
168	0xbef1245a	-0.47098047
169	0xbeb74933	-0.35798034
170	0x3e25cd54	0.16191608
171	0xbe1e94ad	-0.15486403
172	0x3d1076b6	0.03526946
173	0xbe1f1dbf	-0.15538691
174	0x3ea3d475	0.3199803
175	0xbec7fc38	-0.39059615
176	0x3eba5747	0.36394712
177	0xbeb1619a	-0.34644777
178	0x3e726b1b	0.2367367
179	0x3df91586	0.121623084
180	0x3e536c31	0.2064674
181	0xbf18a8d8	-0.59632635
182	0xbe6468c8	-0.22305596
183	0x3e47993b	0.19492047
184	0x3e152d80	0.14568138
185	0x3ec32f4d	0.38122025
186	0xbf014c13	-0.50506705
187	0xbef535b7	-0.47892544
188	0xbe1e1ec9	-0.15441431
189	0xbe5ef0fe	-0.21771619
190	0xbe1c938c	-0.1529066
191	0xbec1216b	-0.37720808

fc2.bias f4 [3]
0	0x3c80c797	0.015720172
1	0xbd87212c	-0.06598124
2	0xbc20792c	-0.009794515
